model.pth (torch, 29255 bytes, 6 tensors)

lin1.weight f4 [64, 37]
0	0xbd945615	-0.07242981
1	0x3d88d715	0.06681649
2	0xbd9c43b0	-0.07630098
3	0xbe5f61da	-0.21814671
4	0xbe4a6bfc	-0.19767755
5	0xbda7a29b	-0.081853114
6	0xbd040727	-0.032233384
7	0x3e83d218	0.25746226
8	0xbe90b091	-0.2825971
9	0xbf1adf64	-0.6049712
10	0xbd605cc0	-0.054775953
11	0xbc8d59da	-0.017254759
12	0xbdf02e0e	-0.11727534
13	0xbd5eb6e6	-0.054373644
14	0x3c0ced29	0.008601465
15	0xbee70a07	-0.45124838
16	0x3e30785b	0.17233412
17	0x3e1b34f7	0.15156923
18	0x3d06fceb	0.032956045
19	0xbe1b3624	-0.15157372
20	0xbe2e9cb8	-0.17051971
21	0x3e363320	0.1779294
22	0x3e642fa3	0.22283797
23	0x3dad6ff8	0.08468622
24	0x3e720733	0.23635559
25	0xbe7f133d	-0.24909683
26	0x3e58002c	0.21093816
27	0x3d5b031d	0.053469766
28	0xbe29d320	-0.16584444
29	0xbec4ce8a	-0.38438827
30	0xbdf87692	-0.121319905
31	0x3e143356	0.14472708
32	0xbe17bae9	-0.14817394
33	0x3d887ceb	0.06664451
34	0xbe9c8e0a	-0.30577117
35	0x3be1ac91	0.0068870266
36	0xbbd0665d	-0.006359859
37	0x3e3cd4f2	0.18440607
38	0x3da7a4e1	0.08185745
39	0x3d7b8cc0	0.061413527
40	0x3e15b31c	0.14619106
41	0xbde2a272	-0.1106614
42	0x3e9ca909	0.30597714
43	0xbf1db862	-0.6160947
44	0xbef03880	-0.46918106
45	0xbe87be1a	-0.26512223
46	0xbf828cf2	-1.0199263
47	0x3d8a117f	0.06741618
48	0xbcb479e0	-0.02203077
49	0x3dd6f532	0.10495986
50	0x3dc7cf09	0.09756286
51	0x3d3105aa	0.043218292
52	0x3e17f149	0.14838137
53	0xbd8b6464	-0.06806257
54	0x3d8a7cfb	0.067621194
55	0x3e09bd0c	0.13451022
56	0x3d94a542	0.07258083
57	0xbd8650f4	-0.06558409
58	0xbd79de7f	-0.061003204
59	0xbe461eb7	-0.19347654
60	0x3e0119cf	0.12607501
61	0x3e4f87c6	0.20266637
62	0x3b08b9ee	0.0020862776
63	0x3d41a4ec	0.047276422
64	0x3d7baf49	0.06144646
65	0xbcd337a5	-0.02578337
66	0x3db7e948	0.08980042
67	0x3d692efa	0.056929566
68	0x3da85a11	0.08220304
69	0x3e1a1755	0.15047963
70	0x3d5e1070	0.054214895
71	0x3dc516ef	0.09623515
72	0xbd10c6fc	-0.035346016
73	0xbbd1fbb3	-0.0064081787
74	0xbe2be2e8	-0.16785777
75	0x3e681154	0.2266286
76	0x3e22edbd	0.15911002
77	0xbe9227db	-0.28546032
78	0x39f8997e	0.00047416607
79	0xbd341dda	-0.04397378
80	0xbec6d2a7	-0.3883259
81	0x3e80d0d4	0.25159323
82	0x3e2e59b3	0.17026405
83	0xbee483d0	-0.44631815
84	0xbe50fa3c	-0.20407957
85	0xbe82b25b	-0.255267
86	0x3d752f2e	0.059859447
87	0x3dbf1376	0.09329884
88	0x3e8bda00	0.27314758
89	0xbe12ed22	-0.14348271
90	0x3e0ee72c	0.13955373
91	0xbcb3828e	-0.02191284
92	0x3e2247e5	0.15847738
93	0x3e665d16	0.22496447
94	0xbe44e363	-0.19227366
95	0xbe7bedd3	-0.24602441
96	0x3e65a1b7	0.2242497
97	0x3c979487	0.01850344
98	0x3d8c8404	0.068611175
99	0xbdc47b68	-0.095938504
100	0x3e4448c6	0.19168386
101	0xbda0a27c	-0.078434914
102	0xbe186eaf	-0.14885972
103	0x3c9744ee	0.018465485
104	0xbe4f5930	-0.20248866
105	0x3dcce35e	0.10004304
106	0xbec6abf6	-0.3880307
107	0xbe847153	-0.2586771
108	0xbdde85fc	-0.10865399
109	0xbe5e2b74	-0.21696264
110	0xbd3960de	-0.045258395
111	0x3ee43cab	0.44577536
112	0xbf5b1b08	-0.8558812
113	0xbf3151f6	-0.6926569
114	0xbee3b76f	-0.44475886
115	0xc012312a	-2.2842507
116	0xbd79ebf4	-0.061016038
117	0x3da1c02e	0.078979835
118	0x3d9d552a	0.076822594
119	0x3df21f2d	0.118223526
120	0x3de9fccd	0.11425171
121	0xbd905ec9	-0.07049329
122	0x3bac4224	0.005256908
123	0xbc548a1a	-0.012972379
124	0xbd5e2d02	-0.05424214
125	0xbc178c72	-0.009249793
126	0xbe097b66	-0.13425979
127	0x3e592752	0.21206406
128	0xbd3afb54	-0.04564984
129	0xbe4d29e9	-0.20035519
130	0xbe9fc3fa	-0.31204206
131	0xbd7b742e	-0.061390094
132	0xbc3800fe	-0.011230705
133	0x3c7cac26	0.015421903
134	0xbb73004f	-0.0037079041
135	0x3b0c0231	0.002136361
136	0xbd41ad2d	-0.047284294
137	0x3ddf9ce3	0.10918596
138	0x3e13859d	0.14406438
139	0x3dfd5f1c	0.12371656
140	0x3e0aaf61	0.13543464
141	0x3cd45b44	0.025922425
142	0x3e04cbff	0.12968443
143	0x3dfd8bf1	0.12380207
144	0x3d9a699a	0.07539673
145	0x3d6ef5e2	0.05833996
146	0x3d3b7c0a	0.04577259
147	0x3b18fa4d	0.002334255
148	0xbd73a7b9	-0.059486125
149	0xbe04e997	-0.12979732
150	0xbe5f5f34	-0.21813661
151	0xbe2ca542	-0.16859916
152	0xbcf52195	-0.02992324
153	0x3b4c4edf	0.003117494
154	0xbddd1163	-0.10794332
155	0x3dad71eb	0.08468994
156	0xbe873c42	-0.2641316
157	0xbf920886	-1.1408851
158	0xbb694cfd	-0.0035598867
159	0xbd4f5a61	-0.0506233
160	0x3d2934fd	0.0413103
161	0xbf1bd4e3	-0.60871714
162	0xbf4e4dba	-0.8058735
163	0xbdd7f667	-0.105450444
164	0x3d8c8875	0.068619646
165	0xbe0f80c7	-0.14013968
166	0xbe919db0	-0.2844062
167	0x3df87b83	0.12132933
168	0xbe1c496f	-0.15262388
169	0xbdabdfab	-0.08392271
170	0x3e3f51e0	0.18683577
171	0xbefb0173	-0.49024543
172	0xbf0a9b49	-0.54143196
173	0x3d9d53b4	0.07681981
174	0xbee2e6fd	-0.44316855
175	0x3d1d1cce	0.03835755
176	0x3d252aee	0.040324144
177	0xbf453702	-0.7703706
178	0xbaf99d42	-0.0019044059
179	0xbe6adbb6	-0.22935376
180	0x3e2fae4a	0.1715633
181	0xbe52f232	-0.20600203
182	0xbef89553	-0.48551425
183	0xbc198381	-0.009369732
184	0x3b8ea054	0.0043526087
185	0x3cefe9e1	0.029286327
186	0x3dcb0796	0.09913556
187	0x3d8f12a4	0.06985977
188	0x3d7fb027	0.06242385
189	0x3dd98a5e	0.106220946
190	0x3ef305e9	0.47465447
191	0xbf46737f	-0.77519983
192	0xbf01686d	-0.50549966
193	0xbf2f0487	-0.68366283
194	0xc003ba91	-2.058262
195	0x3c1fb27d	0.009747145
196	0x3d1a5461	0.037678126
197	0x3d588b1f	0.05286705
198	0xbc54b9d1	-0.012983755
199	0x3cce5f78	0.025192007
200	0x3d5b7658	0.05357966
201	0x3e07a47e	0.13246343
202	0x3d465afc	0.048426613
203	0x3d39fa7e	0.045404904
204	0xbd9698a9	-0.07353336
205	0x3e2cb0cf	0.16864322
206	0x3e17d341	0.1482668
207	0x3e1f3213	0.15546446
208	0x3dea143a	0.11429639
209	0xbce6b7dc	-0.028163843
210	0x3d244064	0.04010047
211	0x3dba50e1	0.09097458
212	0x3df0a054	0.1174933
213	0x3d953b8a	0.07286747
214	0xbc586a1c	-0.013208892
215	0x3dcfd65f	0.1014831
216	0x3d972299	0.07379646
217	0x3c259b8d	0.010107887
218	0x3d57494b	0.052560132
219	0xbd8d930f	-0.06912815
220	0x3b1488bb	0.0022664506
221	0x3b5876c6	0.003302978
222	0x3cd290bd	0.025703782
223	0xbe8090f1	-0.25110582
224	0x3d96ccf7	0.07363313
225	0xbc915b2d	-0.017743671
226	0xbd98260e	-0.07429133
227	0xbaaf4589	-0.0013372164
228	0xbe45e4b5	-0.19325526
229	0xbd2874df	-0.041127082
230	0xbde32c0c	-0.11092386
231	0x3e96b8b1	0.29437783
232	0xbdaa718e	-0.0832244
233	0xbdf473ce	-0.119361505
234	0x3db9f367	0.090796284
235	0xbd9bcd57	-0.07607525
236	0x3e7ebe24	0.2487722
237	0x3d96de7f	0.073666565
238	0xbe124832	-0.14285353
239	0xbdedd00d	-0.11611948
240	0xbc3489ae	-0.0110191535
241	0x3e12f02a	0.14349428
242	0xbdb4da85	-0.08830742
243	0xbe0cbe73	-0.13744526
244	0xbd391966	-0.045190237
245	0xbce413e3	-0.027841514
246	0x3e881e5d	0.26585665
247	0xbc813b21	-0.015775265
248	0xbd3dc967	-0.04633465
249	0xbea874ff	-0.3290176
250	0xbe4e96c9	-0.20174707
251	0x3e2c12f3	0.16804104
252	0x3d0a0793	0.03369863
253	0xbe10fa2c	-0.14157933
254	0xbd3271fc	-0.043565735
255	0x3b6bf684	0.003600509

lin1.bias f4 [64]
0	0x3e01d63c	0.1267938
1	0x3cfd850f	0.030947236
2	0xbe196ea2	-0.1498361
3	0x3d8d43a5	0.06897668
4	0x3dff6717	0.12470835
5	0x3dd1e1cd	0.10248146
6	0xbe29aec6	-0.16570577
7	0x3c9bab2c	0.01900252
8	0x3d61d2e5	0.055132765
9	0xbdf9cb6e	-0.12197004
10	0x3e0f9b56	0.140241
11	0x3e2576be	0.16158578
12	0x3e089efd	0.13341899
13	0x3dea9be3	0.11455514
14	0xbe31e0ac	-0.17370862
15	0xbd6d17e2	-0.057884105
16	0x3dd3fe35	0.103512205
17	0xbd8ca4c6	-0.068673655
18	0x3d1e5df5	0.038663823
19	0xbe1bee17	-0.15227543
20	0xbdb8216f	-0.08990752
21	0x3d7bbda9	0.06146017
22	0xbcaa3cd8	-0.020780966
23	0xbe199585	-0.14998443
24	0xbe0ad36d	-0.13557215
25	0x3e1e0745	0.1543246
26	0xbd372ce6	-0.044720553
27	0xbe2cb271	-0.16864945
28	0x3e3863ee	0.1800687
29	0x3e1e2504	0.15443808
30	0xbd8d8283	-0.06909659
31	0xbe1e0087	-0.15429889
32	0x3e7fe095	0.24988015
33	0xbba6a301	-0.0050853495
34	0xbe0351b6	-0.12824139
35	0x3d11d2f3	0.035601567
36	0xbd55dff2	-0.052215524
37	0x3dc3fc70	0.09569633
38	0x3d83eef7	0.06442063
39	0xbdd342e1	-0.103154905
40	0xbdb591ae	-0.08865677
41	0xbdae3d9d	-0.085078456
42	0xbdf990e2	-0.12185837
43	0x3e6d16c8	0.23153222
44	0x3be9d110	0.007135518
45	0xbdfde357	-0.12396877
46	0x3c208959	0.009798371
47	0xbe016fc2	-0.12640288
48	0xbe179a80	-0.14805031
49	0x3d8b72b5	0.06808988
50	0xbe613401	-0.21992494
51	0x3d1d9281	0.038469795
52	0x3cbd4e94	0.023108758
53	0xbdbf653d	-0.093454815
54	0xbe2aeb9e	-0.16691443
55	0x3c8e04be	0.017336246
56	0x3def7c7a	0.11693664
57	0x3d84367b	0.06455704
58	0xbdca84b3	-0.098885916
59	0xbdc1284c	-0.09431514
60	0x3d00e699	0.031469915
61	0x3ce7c872	0.028293822
62	0x3d9d0fa7	0.07669001
63	0x3d35433a	0.044253565

lin2.weight f4 [64, 64]
0	0x3dbb26b4	0.091382414
1	0x3d4a6dbb	0.049421053
2	0xbd2c25ed	-0.042028356
3	0x3f080f20	0.5314808
4	0x3de1568e	0.11002837
5	0xbce51e7f	-0.027968643
6	0xbda90699	-0.082532115
7	0xbd9352eb	-0.0719355
8	0x3d21c582	0.039495
9	0x3c877985	0.016537437
10	0x3d866cdc	0.06563732
11	0xbd2740e9	-0.040833388
12	0x3dc375a5	0.09543923
13	0x3e42212d	0.18957968
14	0xbd103d98	-0.03521499
15	0x3d814cd0	0.06313479
16	0xbdfea0ad	-0.1243299
17	0x3d47894b	0.048714917
18	0x3dbe67c6	0.09297137
19	0x3e0349c8	0.12821114
20	0x3d32072c	0.04346387
21	0xbcf50127	-0.029907776
22	0x3e310e8c	0.17290705
23	0xbe1bfe80	-0.15233803
24	0xbdabea54	-0.08394304
25	0x3e46a476	0.19398674
26	0x3e422aef	0.1896169
27	0x3e2716b6	0.16317257
28	0xbd372625	-0.04471411
29	0x3e145a16	0.1448749
30	0xbd1bfc22	-0.03808225
31	0xbca2c8fe	-0.019871231
32	0x3e00f164	0.12592083
33	0x3e1476d9	0.14498462
34	0xbe478776	-0.19485268
35	0xbde35cb8	-0.11101669
36	0xbeb161bd	-0.3464488
37	0x3e681d9d	0.22667547
38	0x3e499348	0.1968509
39	0xbe899762	-0.26873308
40	0xbe00afa2	-0.12566999
41	0xbe9fff30	-0.3124938
42	0x3deb04bb	0.11475512
43	0xbd70d674	-0.05879827
44	0x3e450d02	0.19243243
45	0xbc74ee16	-0.014949342
46	0xbec13045	-0.3773214
47	0xbcb6901f	-0.02228552
48	0xbda30273	-0.079594515
49	0x3df4ceec	0.1195353
50	0xbd971bae	-0.07378326
51	0x3d8f9e90	0.07012665
52	0xbdcc3ef5	-0.099729456
53	0xbebebad0	-0.37251902
54	0xbe380181	-0.17969324
55	0x3d4a8008	0.049438506
56	0xbd5177b6	-0.051139556
57	0xbe8876aa	-0.26653033
58	0x3cc82c69	0.024435239
59	0xbe1713d7	-0.14753662
60	0xbcf57359	-0.029962229
61	0x3d2e47f6	0.042549096
62	0x3d380559	0.044926975
63	0xbe8be451	-0.2732263
64	0x3d9eaf95	0.07748333
65	0x3e576f7c	0.21038622
66	0x3e44cd16	0.19218859
67	0xbcf047a7	-0.029331041
68	0x3e34d0af	0.17657731
69	0x3e9befb2	0.3045631
70	0xbe0b7d5a	-0.13622037
71	0xbda61931	-0.08110274
72	0x3da49cdc	0.08037731
73	0x3c8034df	0.01565021
74	0x3c001c35	0.007819225
75	0x3e173741	0.14767171
76	0xbd5ecdce	-0.05439549
77	0x3e0245dc	0.12721962
78	0xbe9cfde9	-0.30662468
79	0xbc4d36a1	-0.012525232
80	0x3e200f4e	0.15630838
81	0x3dd6877c	0.1047506
82	0xbda9ed51	-0.08297218
83	0x3d951b0f	0.07280552
84	0x3e142749	0.14468111
85	0x3dcc9a42	0.0999036
86	0xbe84c31f	-0.25930116
87	0xbdd624c6	-0.10456233
88	0xbce728ff	-0.02821779
89	0xbe0683f4	-0.13136274
90	0xbe80018b	-0.25001177
91	0x3d966ee2	0.07345368
92	0x3dfcb560	0.12339282
93	0xbda8ef9b	-0.08248826
94	0xbe275cf9	-0.1634406
95	0xbe887ec0	-0.26659203
96	0xbe0e2f16	-0.1388515
97	0xbe52f0f7	-0.20599733
98	0xbbd92e4a	-0.0066278325
99	0xbe4dcf77	-0.20098673
100	0xbde2f4df	-0.11081862
101	0x3d48120b	0.048845332
102	0x3e14a4a2	0.14515927
103	0xbe366381	-0.17811395
104	0xbc6fad26	-0.014628684
105	0x3d66d3f5	0.05635448
106	0xbdd88d91	-0.10573877
107	0x3b063dc0	0.0020483583
108	0xbdcb989b	-0.099412166
109	0xbdeb8cc4	-0.11501458
110	0xbe06c6ea	-0.13161817
111	0xbdf280f9	-0.11841006
112	0xbd9ac3af	-0.07556855
113	0xbddf22a1	-0.10895277
114	0xbdf1286f	-0.1177529
115	0x3da7af2f	0.081877105
116	0xbc0f7aec	-0.008757334
117	0xbe9fc69a	-0.31206208
118	0xbe49c4ce	-0.19703981
119	0x3d6a9514	0.05727108
120	0xbd01b6c8	-0.031668454
121	0x3ac2a7dc	0.0014851051
122	0x3e49c876	0.19705376
123	0x3d3fe4be	0.046849005
124	0xbdcdc4af	-0.1004728
125	0xbb01304e	-0.001971263
126	0x3d6210a3	0.055191647
127	0xbd905de2	-0.07049157
128	0xbe13fb8c	-0.14451426
129	0xbdb915d1	-0.09037364
130	0x3d9f60d0	0.077821374
131	0x3dcd59eb	0.10026916
132	0x3e78c0b0	0.24292254
133	0xbd989730	-0.07450712
134	0xbe94a495	-0.29031816
135	0x3c22fa2f	0.009947344
136	0x3e4d03e8	0.20021021
137	0xbe16a875	-0.14712699
138	0xbc268242	-0.010162892
139	0x3d749118	0.059708685
140	0xbca34d26	-0.019934248
141	0x3d84bc1f	0.06481194
142	0xbda74740	-0.08167887
143	0x3c8cc0af	0.017181722
144	0xbe0c0297	-0.13672863
145	0xbe94e821	-0.2908335
146	0x3d7336db	0.059378486
147	0xbe72e967	-0.23721848
148	0x3d104b46	0.035228036
149	0x3e5e806e	0.2172868
150	0x3e276f14	0.16350967
151	0x3b1c88ca	0.0023885244
152	0xbe83ac3e	-0.25717348
153	0x3e3edc5e	0.18638751
154	0x3e3c5643	0.18392281
155	0xbebe197d	-0.3712882
156	0xbe35de29	-0.17760529
157	0x3dfb5b3a	0.122732595
158	0xbcd9ad85	-0.026571998
159	0xbccca66c	-0.0249817
160	0xbe8103c3	-0.25198182
161	0x3c275637	0.010213426
162	0xbe123440	-0.14277744
163	0x3da0e1ee	0.07855593
164	0x3e3d0b19	0.18461265
165	0x3c8206f4	0.015872456
166	0xbd09a143	-0.033601057
167	0xbe9c9661	-0.3058348
168	0x3e15bb0b	0.14622132
169	0xbedc21be	-0.42994493
170	0xbe864017	-0.26220772
171	0xbe761e22	-0.24034932
172	0xbe16daec	-0.1473195
173	0x3cbf6ad5	0.023366371
174	0x3c190eeb	0.009341936
175	0xbd141207	-0.036150005
176	0xbee1c48f	-0.44095275
177	0xbe413e52	-0.1887143
178	0xbe3bfbc9	-0.18357767
179	0xbe1472d8	-0.14496934
180	0xbf068d6f	-0.5255956
181	0xbeacd304	-0.33754742
182	0xbeafcf28	-0.34337735
183	0xbf097059	-0.53687054
184	0x3c697633	0.014249372
185	0xbe4f7121	-0.20257999
186	0xbd1fd778	-0.039023846
187	0x3e08cef9	0.13360204
188	0xbe006271	-0.12537552
189	0x3cbc9e75	0.023024777
190	0x3e9ef0a6	0.31042975
191	0xbcfd75b4	-0.030939914
192	0x3c7c3b36	0.015394976
193	0xbe0fda34	-0.14048082
194	0x3e5d1c4a	0.21592823
195	0x3e80eb9f	0.25179765
196	0xbe2be223	-0.16785483
197	0xbce8c1a2	-0.028412644
198	0xbe72b23d	-0.23700805
199	0xbe57c4f5	-0.21071227
200	0xbe4d2885	-0.20034988
201	0x3c24c6f6	0.010057202
202	0xbdb00074	-0.085938364
203	0x3e5a1443	0.21296792
204	0x3d137bf8	0.036006898
205	0x3dcdb256	0.100437805
206	0x3d068e3b	0.032850485
207	0xbe2b67d0	-0.1673882
208	0xbd8ec6ee	-0.069715366
209	0xbb11d1db	-0.0022250328
210	0x3e1b583c	0.15170377
211	0xbd4fce18	-0.050733656
212	0xbd8bd8c3	-0.068284534
213	0x3e7e7fd1	0.24853446
214	0x3e9686a3	0.29399595
215	0xbd42714d	-0.047471333
216	0x3e0f0704	0.1396752
217	0x3ccfc2a6	0.02536137
218	0xbe8cd452	-0.27505738
219	0xbd916e18	-0.07101077
220	0x3e72799c	0.23679203
221	0xbdb17532	-0.08664931
222	0xbe3cbaeb	-0.18430679
223	0xbc8c2dba	-0.017111648
224	0xbce79918	-0.028271243
225	0xbe07f322	-0.13276342
226	0x3e1d0e91	0.15337588
227	0xbd7e7c7e	-0.062130444
228	0xbd9f9aa0	-0.07793164
229	0x3de80872	0.11329736
230	0x3de01ecf	0.10943376
231	0xbdcff13f	-0.10153436
232	0xbd8c613f	-0.06854486
233	0x3dc1cd37	0.0946297
234	0x3d02e71a	0.031958677
235	0xbd4e14b8	-0.050312728
236	0xbd611e4e	-0.05496054
237	0x3a98e1d8	0.0011663986
238	0xbd9d8e06	-0.076931044
239	0xbbc99855	-0.0061521926
240	0x3e8fc3e8	0.28079152
241	0x3d1d3184	0.0383773
242	0xbe832c99	-0.25619963
243	0xbd18a7ec	-0.037269518
244	0xbd58a69f	-0.052893277
245	0x3caf8cf9	0.021429526
246	0x3ce0a9d2	0.027424727
247	0xbe22b8f2	-0.15890864
248	0xbe1e65b4	-0.15468484
249	0xbd1c30a1	-0.038132314
250	0xbd9c2a7c	-0.07625291
251	0x3e20240d	0.15638752
252	0xbe5356ef	-0.20638631
253	0x3e04a052	0.12951782
254	0x3d33342b	0.043750923
255	0x3c95ebca	0.01830091

lin2.bias f4 [64]
0	0xbd956f4f	-0.07296621
1	0x3ca25087	0.019813789
2	0x3d1fc255	0.03900369
3	0x3b583356	0.0032989583
4	0x3db7ed2c	0.08980784
5	0xbe4ad3ef	-0.19807409
6	0xbdcb1874	-0.099167734
7	0x3d313b95	0.043269712
8	0x3dfa7feb	0.1223143
9	0x3ecd6952	0.40119416
10	0xbdc0ef3c	-0.0942063
11	0x3e5f611d	0.2181439
12	0x3da01236	0.078159735
13	0xbc2b76ad	-0.010465306
14	0xbca64a27	-0.02029903
15	0x3e180d12	0.14848736
16	0x3d8415be	0.064494595
17	0x3cba2897	0.022724433
18	0xbdcd9229	-0.100376435
19	0x3e189496	0.14900431
20	0x3e28379f	0.16427468
21	0x3eec8362	0.46193987
22	0xbe1d3eaf	-0.15355943
23	0xbdb1d5ea	-0.08683379
24	0x3cdcaf0a	0.026938934
25	0xbd4ab4b8	-0.049488753
26	0x3e05c676	0.13063988
27	0xbd532579	-0.05154941
28	0x3b677c4d	0.0035321892
29	0x3d8c42a8	0.06848651
30	0x3e03d8e0	0.128757
31	0xbca0dbfb	-0.019636145
32	0xbcb160a3	-0.021652525
33	0x3d89ed2d	0.06734691
34	0xbc573b84	-0.013136748
35	0xbd481bae	-0.048854522
36	0xbddfc9cb	-0.10927161
37	0xbe703027	-0.23455869
38	0x3d867e87	0.06567102
39	0xbbca0d24	-0.0061661173
40	0xbdff1bdf	-0.12456488
41	0x3eedeb40	0.46468544
42	0x3e92fd6e	0.28708977
43	0xbd70e7e7	-0.05881491
44	0x3dd7a4af	0.10529458
45	0xbdaae460	-0.0834434
46	0x3dd1e2ab	0.102483116
47	0xbd138170	-0.036012113
48	0x3e1bd7e9	0.15219082
49	0xbdad74d3	-0.08469548
50	0xbe0b16d6	-0.1358293
51	0x3e9891cd	0.29798737
52	0xbd9d5e11	-0.07683957
53	0x3db0ea37	0.08638423
54	0x3d5983e4	0.053104296
55	0xbe0c613a	-0.13708964
56	0xbe4ae341	-0.19813253
57	0xbe3555e6	-0.17708549
58	0x3d9a3f2d	0.07531581
59	0xbd462fec	-0.048385546
60	0x39e7d8dd	0.0004422133
61	0x3e88dc48	0.2673056
62	0x3dc0e972	0.09419526
63	0xbd85eec8	-0.065396845

lin3.weight f4 [4, 64]
0	0xbe7fcc22	-0.24980214
1	0x3dbd2e43	0.09237339
2	0x3d4f35ea	0.050588526
3	0xbd3c9f7d	-0.046050537
4	0x3e9547c1	0.29156306
5	0xbdd80cf2	-0.10549344
6	0xbd382299	-0.04495487
7	0xbe373328	-0.17890608
8	0x3e82770d	0.25481454
9	0x3dfeb249	0.12436349
10	0xbe84bb8c	-0.25924337
11	0x3e5df4a4	0.21675354
12	0xbd03edfd	-0.032209385
13	0xbde0e5fd	-0.10981367
14	0x3ea46a68	0.32112432
15	0x3c0f644c	0.00875194
16	0xbd988029	-0.074463196
17	0x3eb7e068	0.35913396
18	0xbc256930	-0.010095879
19	0x3e276bda	0.16349736
20	0x3db983d2	0.09058346
21	0x3e1845c8	0.1487037
22	0x3c9b29b9	0.018940793
23	0x3e7dbc76	0.24778923
24	0xbd80faab	-0.06297811
25	0xbdd4a71c	-0.10383436
26	0xbe87957d	-0.26481238
27	0x3c954cf2	0.018225167
28	0x3b7d3343	0.003863529
29	0x3e805e0d	0.25071755
30	0xbf0306ee	-0.5118245
31	0x3e003bfb	0.1252288
32	0x3eb1b199	0.3470581
33	0x3e9fb817	0.31195137
34	0x3dd3a038	0.10333294
35	0xbdd7a309	-0.10529143
36	0x3daac0a6	0.08337526
37	0xbe703c14	-0.23460418
38	0x3d90cd86	0.070704505
39	0x3d9152c7	0.07095867
40	0x3cc06cd5	0.023489395
41	0x3e2b382e	0.1672065
42	0x3e35283e	0.17691132
43	0x3e988d9d	0.29795542
44	0x3d436558	0.04770407
45	0xbd871024	-0.065948755
46	0x3deb3758	0.11485165
47	0xbcb9dcc4	-0.022688277
48	0xbd89b351	-0.06723655
49	0x3de0351c	0.1094763
50	0xbd363c17	-0.0444909
51	0x3e967178	0.29383445
52	0x3e391ec1	0.18078138
53	0x3dc2ec0a	0.09517677
54	0x3e0d59f2	0.13803843
55	0x3eb2de97	0.34935448
56	0xbe02d6f3	-0.12777309
57	0xbcdc6b78	-0.026906714
58	0x3ea41a52	0.3205133
59	0x3e9f76c9	0.31145313
60	0xbe176ebe	-0.14788339
61	0x3e60bce1	0.21947052
62	0x3e1f1b3c	0.15537733
63	0x3d143fc4	0.036193624
64	0x3d5859ad	0.052819896
65	0x3de4a792	0.11164774
66	0xbcc84821	-0.024448456
67	0x3c001050	0.007816389
68	0x3d8c7a36	0.068592474
69	0xbc9d296e	-0.019184794
70	0x3dc17c8e	0.09447585
71	0xbd7068d3	-0.05869372
72	0x3e1d2ba7	0.15348683
73	0x3deae822	0.11470057
74	0x3e0397fe	0.12850949
75	0x3e276974	0.16348821
76	0x3cb99a03	0.022656446
77	0xbd0f0f9e	-0.034927003
78	0x3e7e0f65	0.2481056
79	0x3d9ff888	0.078110754
80	0xbcc3e56b	-0.023913106
81	0x3ea1b4ba	0.31583196
82	0xbd82e746	-0.06391768
83	0x3e0d99d9	0.1382822
84	0x3e1d3ee8	0.15356028
85	0x3e42cccd	0.19023438
86	0xbdaae53d	-0.08344505
87	0x3e6a0f6f	0.2285745
88	0xbc162c0e	-0.009165777
89	0xbe9582ac	-0.29201257
90	0xbdf71395	-0.12064282
91	0x3d434837	0.04767629
92	0x3dfe3803	0.12413027
93	0x3edc0d77	0.42979023
94	0x3cbff581	0.023432495
95	0x3ddcd069	0.107819386
96	0xbea81602	-0.3282929
97	0x3dfc0458	0.12305516
98	0x3efa3eb2	0.48875958
99	0x3ecf1743	0.40447435
100	0x3e88efc4	0.26745427
101	0xbe343b72	-0.17600802
102	0x3e958c8d	0.29208794
103	0x3d198118	0.03747663
104	0xbc8d67bc	-0.017261378
105	0x3e3f1c0f	0.18663047
106	0x3db9c00f	0.090698354
107	0x3d28f090	0.041245043
108	0x3ce0a291	0.027421268
109	0xbe433727	-0.19064008
110	0x3e0dfe48	0.13866532
111	0x3ef2e954	0.4744364
112	0x3d803fcf	0.062621705
113	0x3d5b6db1	0.053571407
114	0x3dde2642	0.10847141
115	0x3e52192b	0.20517413
116	0x3c718823	0.01474193
117	0x3e1dabf5	0.15397628
118	0x3da179fe	0.07884596
119	0x3eddec3a	0.4334429
120	0xbe192e5a	-0.14959088
121	0xbdd451b9	-0.1036715
122	0x3ebe4734	0.371637
123	0x3f09cee9	0.53831345
124	0xbe51fc97	-0.20506512
125	0x3da06171	0.078310855
126	0x3ca3085b	0.019901445
127	0xbd4dd314	-0.050250128
128	0xbe2830b9	-0.16424836
129	0x3e393f50	0.18090558
130	0x3e97c4c0	0.29642296
131	0x3e29b349	0.16572298
132	0x3ef7c76c	0.48394334
133	0xbe93e21a	-0.2888344
134	0x3eb09cf5	0.3449475
135	0x3dbf3e46	0.093380496
136	0x3e34eec2	0.17669204
137	0x3e08ce25	0.13359888
138	0xbe5f2af2	-0.21793726
139	0x3e3b9844	0.18319803
140	0x3e8139e3	0.25239477
141	0xbe79500b	-0.2434694
142	0x3eddf0db	0.4334782
143	0x3e3f6708	0.18691647
144	0x3e6aa7f8	0.22915637
145	0xbd7880f2	-0.060669847
146	0xbd6cab8e	-0.057780795
147	0x3e314eb8	0.17315185
148	0x3db149a2	0.086566225
149	0x3e4fe349	0.20301546
150	0xbea4bd51	-0.32175687
151	0x3e8fe6de	0.28105825
152	0x3e56ef7c	0.20989794
153	0xbe781218	-0.24225652
154	0xbe255946	-0.16147336
155	0xbea49047	-0.32141325
156	0x3f191518	0.5979781
157	0x3cc2c50e	0.023775604
158	0xbe8c0218	-0.27345347
159	0xbdf83d68	-0.12121087
160	0x3d795950	0.06087619
161	0x3da7273f	0.081617825
162	0x3eee15f0	0.46501112
163	0x3f08e986	0.5348133
164	0x3deaed1d	0.11471007
165	0xbe13d242	-0.14435676
166	0x3e514454	0.20436221
167	0xbe15d5d8	-0.14632356
168	0x3e51e4ee	0.20497486
169	0x3e1a2eea	0.15056959
170	0x3e370390	0.17872453
171	0x3e5c6155	0.21521504
172	0x3d858d28	0.06521064
173	0xbe916a76	-0.28401536
174	0x3e181281	0.14850809
175	0x3ea2f5ad	0.3182806
176	0x3e828634	0.25493014
177	0x3e32ee9e	0.17473838
178	0x3cb9a72e	0.022662725
179	0x3e61ecf4	0.22063047
180	0xbdea9bc3	-0.114554904
181	0x3dd46baa	0.10372098
182	0xbd534265	-0.05157699
183	0xbd13947a	-0.03603027
184	0xbdbe4fe7	-0.09292584
185	0x3b96d33b	0.0046028174
186	0x3e91580b	0.28387484
187	0x3ee6c517	0.45072243
188	0xbdf5af33	-0.11996307
189	0x3e364172	0.17798403
190	0xbe0adb73	-0.13560276
191	0xbe8a29df	-0.2698507
192	0xbddbead3	-0.107381485
193	0x3e5ac686	0.21364793
194	0x3e0772ea	0.1322743
195	0xbe93ed22	-0.28891855
196	0xbd2b093a	-0.041756846
197	0x3e72af79	0.2369975
198	0xbe8000b3	-0.25000533
199	0x3c24cb6e	0.010058267
200	0x3e3403ca	0.1757957
201	0x3e371888	0.17880452
202	0x3eb7a3ae	0.35867065
203	0x3db0e87c	0.08638093
204	0x3e58b9c2	0.21164611
205	0x3df5c885	0.12001137
206	0x3e99717a	0.29969388
207	0x3dd09ec0	0.10186529
208	0x3eabb711	0.33538106
209	0x3e0adde2	0.13561204
210	0x3da2241a	0.07917042
211	0x3df047ff	0.11732482
212	0xbd46fb3a	-0.048579432
213	0x3e4ace29	0.19805206
214	0xbd41c2e0	-0.047304988
215	0x3f2a55e4	0.6653731
216	0x3dfee3dc	0.124458045
217	0xbe85a139	-0.26099566
218	0xbe320465	-0.17384489
219	0x3e3e2ad2	0.18571022
220	0x3d22a65e	0.03970944
221	0x3ef75439	0.48306444
222	0xbecd688a	-0.4011882
223	0x3dc3101e	0.095245585
224	0xbe7ad3c6	-0.24494848
225	0x3d51b08f	0.05119377
226	0xbe0a88ca	-0.13528743
227	0x3e97f94f	0.29682395
228	0x3d697f30	0.05700606
229	0xbde0e4c0	-0.109811306
230	0x3e94036a	0.28908855
231	0x3e45ebaf	0.19328187
232	0xbe5a842a	-0.21339479
233	0x3e3cbb90	0.18430924
234	0x3e2fc21c	0.1716389
235	0xbe715b10	-0.23569894
236	0x3e9049ad	0.2818121
237	0xbe56a3dd	-0.20960946
238	0x3dec7098	0.11544913
239	0xbec61268	-0.38685918
240	0x3c8c0f07	0.01709701
241	0xbe617216	-0.22016177
242	0x3ea35f18	0.31908488
243	0x3e7a16fa	0.24422827
244	0x3e2a4088	0.16626179
245	0x3bf8f25b	0.0075972504
246	0x3e3be7d5	0.18350156
247	0x3f0b1406	0.5432743
248	0xbdd9ac30	-0.10628545
249	0xbe7de7c3	-0.24795441
250	0x3deaf501	0.11472512
251	0x3e1027a7	0.14077626
252	0xbe8cd12e	-0.2750334
253	0x3d5fda9c	0.05465184
254	0xbead39bc	-0.3383311
255	0xbf0a5b1b	-0.54045266

lin3.bias f4 [4]
0	0x3e7a07db	0.24417059
1	0x3e694517	0.22780262
2	0x3e20dc01	0.15708925
3	0x3e198d3c	0.14995283
