model.pth (torch, 29255 bytes, 6 tensors)

lin1.weight f4 [64, 37]
-0.02673518 -0.022507034 -0.012879769 -0.18569976 -0.18767567 0.050445236 -0.2177621 0.086919256
0.281837 -0.020291671 -0.1766291 0.033308715 -0.14703625 -0.19304918 0.0179017 -0.02462436
0.27862343 -0.074223705 -0.055066284 -0.14061268 0.058168754 0.03650807 0.059078686 0.08103636
-0.06001091 0.2661014 -0.14142163 -0.31879017 -0.35142544 -0.2894368 -0.053450085 0.20966648
-0.33371764 -0.00044952054 -0.10943416 -0.11348068 -0.0637655 0.12922598 0.031698782 0.11209045
-0.0044686366 -0.021606993 -0.049646545 -0.02897018 -0.13988796 -0.02925768 0.029016582 -0.043521672
0.025511328 0.035313845 0.2227373 0.26256496 0.08432445 -0.026152927 0.06509958 0.022939213
0.027530069 -0.12142894 -0.045784958 -0.118392654 0.0101234 0.08648664 0.25029206 -0.47284436
-0.4609514 -0.28309882 -1.4314133 0.045197356 0.1849984 0.06589226 -0.072248615 -0.06049201
0.064776234 0.0016966778 0.3233096 -0.2581169 0.047520563 -0.07123505 0.0405654 0.127764
-0.39286825 0.18398213 -0.17532352 -0.3607696 -0.049826723 -0.146243 0.17971122 -0.16158514
-0.059171207 -0.07558036 0.12269254 0.2671387 -0.18072426 0.021884624 -0.01904418 -0.40928108
0.21319999 0.02435002 -0.15486592 0.102123305 0.19265994 -0.08561983 -0.4004552 -0.091874406
-0.23377194 0.32504585 -0.3655352 -0.20896076 0.026406838 0.02416906 -0.04546962 0.069484614
0.005029359 0.22505741 -0.2347857 -0.015105211 -0.37466472 0.116500035 0.30076727 -0.36838806
-0.3288101 0.07923411 -0.2678133 0.15515587 -0.2703091 -1.0124025 -0.23176956 -0.025019957
0.08784518 -0.2589405 -0.11603108 -0.122061156 -0.17041439 0.086574376 0.09640816 -0.3667959
0.032542277 0.068037905 -0.013001037 -0.054688584 -0.027575238 -0.037430678 0.20184112 0.12271734
-0.09638292 -0.48785454 -0.14280154 -0.040975064 -0.06959638 -0.17666541 -0.10082745 -0.4689446
-0.096343495 0.1049169 -0.30404606 -0.043660793 -0.001660017 -0.2617088 -0.045469534 -0.057546414
-0.0017268191 -0.3313945 -0.38040105 -0.1718422 -0.13017158 -0.041873544 -0.059917565 0.09673992
0.02359617 -0.11698161 -0.13114616 -0.05300704 0.17416696 -0.18525599 -0.121401936 0.21947095
0.113078184 -0.048838485 0.2540708 -0.24433577 -0.28958407 -0.27914333 0.32309252 -0.022036688
0.044188306 0.0942157 -0.1191033 -0.096416414 -0.17417932 -0.12847222 0.055164125 0.19450013
-0.25543866 0.1950995 -0.1105913 0.023645474 -0.08930065 -0.046372034 -0.13499598 -0.036716685
0.033661857 0.029329237 -0.25909474 -0.124071725 -0.51923525 0.050686125 -0.17384596 0.22540525
0.018161561 0.15360852 -0.08905249 -0.36997843 0.21840253 -0.053170294 -0.27356958 0.036701966
-0.105042554 -0.18830419 0.19070825 -0.32877073 0.027076498 0.02020087 0.07123841 -0.23261236
-0.13323773 0.093601935 0.012277484 0.032197185 -0.2917868 -0.09331474 -0.021456858 -0.0060382253
-0.023091251 0.15228888 -0.0007680606 -0.25217333 0.18895212 -0.07854154 -0.10169303 -0.07377478
-0.18157695 0.28436682 -0.0898406 -0.07891971 -0.19235611 0.10593131 0.106727354 -0.15320562
-0.083598465 -0.0255059 -0.23021595 -0.12979825 0.1610697 -0.38171354 0.03319107 -0.31713992
00000000: bc03 dbbc ac60 b8bc ab05 53bc 1428 3ebe
00000010: 0d2e 40be aa9f 4e3d 07fd 5ebe b902 b23d
00000020: f04c 903e b83a a6bc 42de 34be b86e 083d
00000030: ac90 16be afae 45be 96a6 923c 07b9 c9bc
00000040: bba7 8e3e 9902 98bd 2f8d 61bd c5fc 0fbe
00000050: 5c42 6e3d 7c89 153d 7efc 713d 64f6 a53d
00000060: 00ce 75bd 713e 883e d5d0 10be 7738 a3be
00000070: 09ee b3be 0f31 94be 7aee 5abd cfb2 563e
00000080: 0add aabe a0ad ebb9 041f e0bd 8f68 e8bd
00000090: 7d97 82bd d153 043e 95d6 013d ae8f e53d
000000a0: a46d 92bb 2601 b1bc 2d5a 4bbd df52 edbc
000000b0: ca3e 0fbe cdad efbc 2fb4 ed3c c843 32bd
000000c0: 22fd d03c 40a5 103d 3f15 643e ea6e 863e
000000d0: 4cb2 ac3d aa3e d6bc ee52 853d 04eb bb3c
000000e0: bd86 e13c bcaf f8bd 0289 3bbd d977 f2bd
000000f0: 9edc 253c e81f b13d 4826 803e a818 f2be
00000100: d201 ecbe 54f2 90be 8d38 b7bf dd20 393d
00000110: 3870 3d3e 85f2 863d 15f7 93bd 78c6 77bd
00000120: 67a9 843d 0f63 de3a d688 a53e e627 84be
00000130: eca4 423d afe3 91bd e827 263d 91d4 023e
00000140: 0726 c9be d065 3c3e 0288 33be cbb6 b8be
00000150: 1b17 4cbd bac0 15be 3806 383e 9376 25be
00000160: 825d 72bd e0c9 9abd 3a46 fb3d 67c6 883e
00000170: c80f 39be 6247 b33c 8a02 9cbc 4a8d d1be
00000180: 1951 5a3e b179 c73c 2c95 1ebe 0626 d13d
00000190: a648 453e 7359 afbd 7708 cdbe a628 bcbd
000001a0: e961 6fbe 696c a63e 6e27 bbbe cff9 55be
000001b0: 2753 d83c 31fe c53c 5a3e 3abd f34d 8e3d
000001c0: 52cd a43b 7375 663e aa6b 70be d97b 77bc
000001d0: 0ed4 bfbe 9297 ee3d 2bfe 993e 5c9d bcbe
000001e0: cc59 a8be 7e45 a23d d31e 89be 2ee1 1e3e
000001f0: f465 8abe 6896 81bf 0055 6dbe a7f6 ccbc
00000200: 2ce8 b33d d993 84be b4a1 edbd 33fb f9bd
00000210: 1c81 2ebe e84d b13d a471 c53d accc bbbe
00000220: 0d4b 053d 7557 8b3d 4d02 55bc 2301 60bd
00000230: 77e5 e1bc e950 19bd 70af 4e3e 3b53 fb3d
00000240: 6964 c5bd 12c8 f9be 913a 12be 78d5 27bd
00000250: 8c88 8ebd c7e7 34be 9f7e cebd 8219 f0be
00000260: bd4f c5bd acde d63d edab 9bbe a9d5 32bd
00000270: ed94 d9ba b2fe 85be 433e 3abd cab5 6bbd
00000280: 6f56 e2ba 8aac a9be edc3 c2be 67f7 2fbe
00000290: b34b 05be 9883 2bbd 1f6c 75bd 941f c63d
000002a0: c14c c13c 0e94 efbd 2e4b 06be e91d 59bd
000002b0: d358 323e bfb3 3dbe 94a1 f8bd febc 603e
000002c0: 8995 e73d dd0a 48bd 9115 823e 2833 7abe
000002d0: 5d44 94be e0eb 8ebe 626c a53e 4986 b4bc
000002e0: ccfe 343d 29f4 c03d 6eec f3bd f875 c5bd
000002f0: 105c 32be 398e 03be c7f3 613d 0b2b 473e
00000300: dbc8 82be 2ac8 473e b17d e2bd 27b4 c13c
00000310: 42e3 b6bd 9af0 3dbd 633c 0abe 3c64 16bd
00000320: 04e1 093d de43 f03c 11a8 84be 5119 febd
00000330: 9aec 04bf 419c 4f3d ad04 32be a2d0 663e
00000340: 8ec7 943c 8d4b 1d3e 2761 b6bd d06d bdbe
00000350: eaa4 5f3e 18c9 59bd 5011 8cbe cd54 163d
00000360: 8d20 d7bd d0d2 40be 0649 433e a354 a8be
00000370: 88cf dd3c 4c7c a53c 72e5 913d ef31 6ebe
00000380: 796f 08be 5fb2 bf3d 8027 493c 32e1 033d
00000390: 1465 95be cc1b bfbd 4bc6 afbc 4edc c5bb
000003a0: dd29 bdbc 9ef1 1b3e ad57 49ba dd1c 81be
000003b0: aa7c 413e 63da a0bd 6f44 d0bd 3b17 97bd
000003c0: 4fef 39be 8798 913e 59fe b7bd a8a0 a1bd
000003d0: 00f9 44be 84f2 d83d df93 da3d efe1 1cbe
000003e0: ac35 abbd c0f1 d0bc bbbd 6bbe d5e9 04be
000003f0: 75ef 243e f56f c3be 5cf3 073d 2a60 a2be

lin1.bias f4 [64]
0.1334628 -0.008708276 -0.11282016 0.03770689 0.102758415 -0.09456176 -0.14531873 0.060557377
0.042454798 -0.2551277 0.12795292 0.1534476 0.08895178 0.15646254 0.037521787 -0.08363446
0.06847813 -0.082919136 0.0056786407 -0.09512138 -0.04140659 0.00056730444 0.059164923 -0.07293836
-0.086366825 0.13710985 -0.08621073 -0.11749092 0.21040785 0.15356708 -0.07017435 -0.15042259
0.22195804 0.07570009 -0.079575345 0.060438428 -0.057003606 0.05417973 -0.03571752 -0.05246651
-0.13176802 0.023900831 -0.111701086 0.21057703 7.606016e-05 -0.007803682 0.02161042 -0.08432448
-0.17225917 0.027162915 -0.12722112 0.026812427 -0.0129313255 -0.12361489 -0.10438477 0.0068375883
0.065032326 0.005650403 -0.037487257 -0.089506954 0.08954864 0.039375976 0.0921898 -0.030289292
00000000: 79aa 083e 28ad 0ebc 420e e7bd 8a72 1a3d
00000010: 0173 d23d 99a9 c1bd 6fce 14be 030b 783d
00000020: 15e5 2d3d 19a0 82be 1706 033e 5e21 1d3e
00000030: 5a2c b63d b737 203e 72b0 193d 8b48 abbd
00000040: 433e 8c3d 82d1 a9bd e413 ba3b 00cf c2bd
00000050: f599 29bd 28b7 143a eb56 723d b560 95bd
00000060: 17e1 b0bd 8666 0c3e 408f b0bd 149f f0bd
00000070: 2875 573e b040 1d3e 92b7 8fbd 6108 1abe
00000080: f848 633e a608 9b3d 66f8 a2bd 498e 773d
00000090: 9d7c 69bd 91eb 5d3d 894c 12bd 20e7 56bd
000000a0: 32ee 06be adcb c33c 8ac3 e4bd 81a1 573e
000000b0: 7d82 9f38 07b6 ffbb 5608 b13c 50b2 acbd
000000c0: b564 30be c384 de3c 4146 02be bca5 db3c
000000d0: e9dd 53bc ce29 fdbd afc7 d5bd d90d e03b
000000e0: ab2f 853d 0427 b93b 3d8c 19bd 6c4f b7bd
000000f0: 4765 b73d b448 213d 02ce bc3d 4021 f8bc

lin2.weight f4 [64, 64]
0.0744184 -0.17138523 0.091903046 0.2345939 0.29317877 0.017965302 -0.23292494 -0.107898206
0.13043623 -0.09234484 0.27355424 -0.07509918 -0.3654651 0.18556888 -0.10869183 -0.20599164
-0.027600886 0.0060929474 0.02532704 0.16911462 -0.030503836 -0.30171385 -0.16435052 -0.17474365
-0.46139875 0.07570921 0.20796642 -0.34723088 0.06651675 -0.089025475 -0.119803295 -0.073603384
0.023343427 0.15895596 -0.05711615 0.37890455 -0.12143658 0.006371687 0.29851392 -0.022747718
0.034791242 -0.17693006 0.101297 -0.19056344 0.07630802 -0.1016603 -0.36738116 -0.0061782827
-0.31072846 -0.21838768 0.16802658 -0.004561659 0.074179664 -0.33483306 -0.24578972 -0.19537553
-0.034874115 0.31079972 0.102134116 -0.09043617 -0.10321428 -0.13431565 -0.092890985 0.36587965
-0.054839917 0.013438965 -0.04510943 -0.0011913312 0.11588443 0.011279077 -0.24639833 0.014542914
-0.0289151 -0.2907928 -0.060569193 0.47650623 -0.10347045 0.21156475 -0.1785492 -0.049768325
0.09508743 0.031832796 -0.04846691 0.07294238 0.07511628 -0.28847986 0.11012247 -0.32198766
-0.104091235 -0.012268081 -0.01639189 -0.26081663 0.2743719 -0.061895713 -0.067914605 -0.07556726
-0.14491566 0.14135687 -0.15395671 -0.02210774 0.021233262 0.024130683 0.17485793 -0.17492658
-0.0783453 -0.31273282 -0.06855969 -0.060840238 -0.07252635 -0.15689665 -0.15917495 -0.10114918
-0.13505732 -0.015270194 0.09797179 0.10037979 0.03019378 -0.20776719 -0.10215521 0.053760026
-0.022376383 0.020556517 0.24357748 -0.021142146 -0.22079799 0.055351593 0.1338521 -0.06064126
-0.121779166 -0.1195432 -0.106859595 -0.049954597 -0.12933642 0.16512239 -0.18054283 -0.12468182
0.13395865 -0.21399705 0.0619103 0.13137029 0.16624877 -0.25423682 0.12891069 -0.04248748
-0.5158696 -0.025526932 0.114147894 -0.71634763 -0.07168464 -0.014152907 0.002212854 0.0799277
-0.18137671 0.31407815 -0.0012432851 0.1720119 -0.2825121 0.13105164 0.09235891 0.009384423
-0.4071849 0.0030761014 -0.19323161 0.23258595 0.10325166 -0.3450891 0.27561608 -0.22331432
0.17406684 -0.22135478 -0.09698196 -0.114178166 0.049650785 0.21945406 -0.025653804 -0.26597095
-0.36398575 -0.037077166 -0.15035573 -0.12338378 -0.20468436 -0.42730156 -0.4838088 -0.3153037
0.17772476 -0.5814233 0.09703969 -0.10682091 -0.001087456 -0.14327268 0.18514661 -0.09985201
-0.016977511 -0.39685398 0.1294361 -0.45346853 0.12831557 -0.025706267 0.0154623585 0.07782759
-0.068539284 -0.20870338 -0.09047493 0.13139798 -0.1927331 0.13805869 0.041709874 -0.023099167
-0.03967168 -0.15689905 -0.05413041 0.06086111 0.06652562 0.09680149 -0.07677536 -0.17743298
-0.1132494 -0.111589566 0.16015194 -0.11955827 0.14833474 -0.45921206 0.19738045 0.10839629
-0.101703614 -0.16893153 0.048896782 0.115867496 -0.14169008 0.034600504 -0.1854845 -0.06131469
-0.19786981 0.13446838 -0.1544881 0.07938459 -0.1812081 0.10245768 -0.048853345 0.10325043
0.091602035 -0.014745823 -0.1483887 -0.014063341 0.13876781 0.02905309 -0.101011425 0.12121349
-0.31442547 -0.30326325 -0.105132066 0.25979385 -0.20138462 -0.26145184 -0.092848524 -0.09131464
00000000: ad68 983d 9c7f 2fbe aa37 bc3d 6239 703e
00000010: 871b 963e f82b 933c e083 6ebe bcf9 dcbd
00000020: 1391 053e 4b1f bdbd 4d0f 8c3e 99cd 99bd
00000030: 3e1e bbbe c505 3e3e d299 debd 79ef 52be
00000040: 411b e2bc 59a7 c73b a77a cf3c 622c 2d3e
00000050: 2ee3 f9bc 3d7a 9abe 814b 28be 00f0 32be
00000060: 753c ecbe 6e0d 9b3d 26f5 543e 3fc8 b1be
00000070: ef39 883d fd52 b6bd 6e5b f5bd 5fbd 96bd
00000080: b73a bf3c 5ac5 223e a0f2 69bd c7ff c13e
00000090: beb3 f8bd 96c9 d03b d1d6 983e 6c59 babc
000000a0: 4381 0e3d 272d 35be cd74 cf3d 1023 43be
000000b0: 6147 9c3d 4633 d0bd 6219 bcbe 3173 cabb
000000c0: cd17 9fbe 05a1 5fbe 290f 2c3e f879 95bb
000000d0: 82eb 973d 3d6f abbe 4db0 7bbe 8610 48be
000000e0: 29d8 0ebd 2421 9f3e b12b d13d 9936 b9bd
000000f0: 0262 d3bd 0b8a 09be a13d bebd 9454 bb3e
00000100: d29f 60bd 1b2f 5c3c aac4 38bd 7126 9cba
00000110: d154 ed3d e1cb 383c d84f 7cbe 6745 6e3c
00000120: 5cdf ecbc cbe2 94be 6717 78bd a0f8 f33e
00000130: 51e8 d3bd 6ea4 583e 9ad5 36be dfd9 4bbd
00000140: 33bd c23d 1b63 023d 3d85 46bd d162 953d
00000150: 90d6 993d a2b3 93be e487 e13d 91db a4be
00000160: c92d d5bd 1000 49bc 4948 86bc c289 85be
00000170: 797a 8c3e 5c86 7dbd d016 8bbd 02c3 9abd
00000180: c564 14be dbbf 103e d4a6 1dbe 4b1b b5bc
00000190: 61f1 ad3c b6ad c53c f50d 333e f41f 33be
000001a0: 8073 a0bd 841e a0be 0669 8cbd 9d33 79bd
000001b0: b288 94bd 84a9 20be c2fe 22be 4d27 cfbd
000001c0: 774c 0abe d62f 7abc 6fa5 c83d eb93 cd3d
000001d0: f258 f73c ecc0 54be c036 d1bd 7933 5c3d
000001e0: ad4e b7bc 2466 a83c 606c 793e 4b32 adbc
000001f0: de18 62be 5ab8 623d 8610 093e f862 78bd
00000200: 5b67 f9bd 11d3 f4bd 34d9 dabd 319d 4cbd
00000210: c470 04be d815 293e 38e0 38be 2f59 ffbd
00000220: 752c 093e 0b22 5bbe a895 7d3d ef85 063e
00000230: 1e3d 2a3e 542b 82be 2a01 043e 5a07 2ebd
00000240: 0810 04bf db1d d1bc 5fc6 e93d 8f62 37bf
00000250: 66cf 92bd 98e1 67bc 8805 113b 22b1 a33d
00000260: d1ba 39be dace a03e baf5 a2ba e323 303e
00000270: 6da5 90be 6732 063e ab26 bd3d 1fc1 193c
00000280: 8a7a d0be 6b98 493b 82de 45be 032b 6e3e
00000290: 9b75 d33d 85af b0be 8d1d 8d3e 82ac 64be
000002a0: 943e 323e d4aa 62be 7a9e c6bd 3ed6 e9bd
000002b0: 9f5e 4b3d 91b8 603e ed27 d2bc 582d 88be
000002c0: 575c babe 3ade 17bd daf6 19be a3b0 fcbd
000002d0: c798 51be 45c7 dabe c9b5 f7be 7d6f a1be
000002e0: 7bfd 353e 28d8 14bf bfbc c63d ecc4 dabd
000002f0: f888 8eba 13b6 12be 1397 3d3e 367f ccbd
00000300: 6c14 8bbc 7230 cbbe e68a 043e 072d e8be
00000310: 2865 033e f395 d2bc d555 7d3c 1264 9f3d
00000320: 535e 8cbd 57b6 55be ec4a b9bd 318d 063e
00000330: d35b 45be 425f 0d3e f9d7 2a3d 773a bdbc
00000340: c67e 22bd 25aa 20be d9b7 5dbd 8049 793d
00000350: 963e 883d dc3f c63d 663c 9dbd feb0 35be
00000360: 4def e7bd 1289 e4bd dffe 233e f7da f4bd
00000370: 10e5 173e d81d ebbe 1a1e 4a3e e0fe dd3d
00000380: fc49 d0bd 63fc 2cbe fe47 483d f04b ed3d
00000390: 3417 11be 42b9 0d3d a6ef 3dbe 1d25 7bbd
000003a0: 629e 4abe 14b2 093e 2132 1ebe 6394 a23d
000003b0: 9e8e 39be 55d5 d13d 721a 48bd f674 d33d
000003c0: d999 bb3d 7798 71bc 35f3 17be ed69 66bc
000003d0: 2619 0e3e bf00 ee3c 14df cebd c73e f83d
000003e0: 60fc a0be 5245 9bbe 7b4f d7bd b303 853e
000003f0: c537 4ebe 04dd 85be 5e27 bebd 2c03 bbbd

lin2.bias f4 [64]
-0.09506211 -0.050661635 0.08500682 0.009443842 0.140977 -0.09570585 -0.0012854444 0.035449535
0.20319071 0.36669046 -0.029656785 0.11445757 0.19488102 -0.039084513 -0.09090725 0.02465646
0.110795915 -0.06765967 -0.08211443 0.110190965 0.014883155 0.4370256 -0.23661017 -0.062319174
-0.16271059 -0.18309335 0.0074694683 -0.045692883 0.0005315594 0.121335074 0.10322333 -0.020004084
-0.042671755 0.13296227 0.014913516 -0.094052486 -0.137047 -0.093925156 0.21936719 0.115433626
-0.10718806 0.4299755 0.19204952 -0.1624417 0.09030885 -0.015522293 0.23997788 -0.12992294
-0.056496322 -0.11211112 -0.14726205 0.2883907 -0.057489734 -0.15557191 0.06390621 0.061596178
-0.16562681 -0.09023186 0.07285838 -0.048441745 0.010245929 0.22246423 0.048829135 -0.0053202696
00000000: ecaf c2bd 9382 4fbd 0e18 ae3d 58ba 1a3c
00000010: 465c 103e 6e01 c4bd 5b7c a8ba 8833 113d
00000020: 3a11 503e dabe bb3e c9f2 f2bc bb68 ea3d
00000030: e48e 473e 1517 20bd 952d babd 58fc c93c
00000040: f8e8 e23d 2791 8abd 9c2b a8bd cdab e13d
00000050: 7ad8 733c d2c1 df3e f049 72be 6442 7fbd
00000060: 9b9d 26be d37c 3bbe 71c2 f43b 7628 3bbd
00000070: 5958 0b3a 867e f83d c166 d33d 9bdf a3bc
00000080: 94c8 2ebd 4327 083e d257 743c 979e c0bd
00000090: 0c56 0cbe d55b c0bd cba1 603e 7768 ec3d
000000a0: 6a85 dbbd c025 dc3e a1a8 443e 1e57 26be
000000b0: d9f3 b83d 3751 7ebc c3bc 753e 850a 05be
000000c0: b068 67bd 849a e5bd ddcb 16be f2a7 933e
000000d0: 5b7a 6bbd 3e4e 1fbe 42e1 823d 464c 7c3d
000000e0: 139a 29be 7bcb b8bd c636 953d da6a 46bd
000000f0: 8ade 273c aacd 633e 0f01 483d a855 aebb

lin3.weight f4 [4, 64]
-0.117573634 0.20493594 0.05844892 0.16820446 0.43096116 0.33628216 -0.2855065 -0.016439302
0.1364759 0.11855771 0.41028503 0.021655649 0.1528292 0.014000712 -0.023889173 0.215069
-0.046187636 0.2743963 -0.1532379 0.2200979 0.308028 0.12595288 -0.022016203 0.24402696
-0.39855266 -0.18419527 -0.10178637 0.0027627207 0.52376825 0.1452283 -0.1343571 0.15918002
-0.24361287 0.15427099 0.02130826 -0.007996372 -0.012185853 -0.15596126 0.15181911 0.11844142
0.0023968297 0.13599554 0.09737629 0.07269178 0.1192292 -0.017931927 0.19708627 0.16591923
-0.17062992 0.06011024 -0.088660926 0.27675208 0.27736545 0.08693235 0.08427021 0.007640904
-0.20389877 -0.13730857 0.10699474 0.19086847 -0.1461759 0.21424656 -0.09905656 0.5053144
-0.105059884 0.19711824 0.4810637 0.19903204 0.34741566 0.29882845 0.110249385 -0.24253811
0.04677771 0.10591939 0.31187272 0.1532327 0.17209713 0.08238144 -0.020247638 0.39950472
0.15225883 0.088393606 -0.076462485 0.15501761 0.47345024 0.23818834 -0.14775711 0.117527746
-0.06816876 -0.1343913 0.03960827 -0.25192425 0.41027686 0.11843921 -0.006264345 0.15561032
-0.37211615 0.11940246 0.054709706 -0.05778904 0.056239624 -0.07911304 0.15156779 0.010362154
0.08536269 0.14200693 0.05379031 0.07651491 0.09092463 0.031194502 0.17818852 -0.44740507
-0.17108801 -0.16460764 0.12781546 0.20221294 0.027928345 0.12015669 0.0937285 0.06190972
-0.08951869 -0.41613907 0.07666564 0.19816095 -0.15388155 0.016023565 -0.24164312 0.3691127
-0.5192244 0.30783862 0.28760806 -0.21639113 0.6428248 0.17354567 -0.038228065 -0.045427628
0.083549246 0.14133798 0.011584794 0.22733475 0.19731663 0.15909392 -0.074394986 0.2440929
0.013257436 -0.037306625 -0.3739932 0.12403785 -0.13906963 0.19941379 -0.09214386 0.08646526
-0.1611081 -0.049451917 -0.27089906 -0.061935388 0.153349 0.31413138 0.2102885 0.097699516
0.024594914 0.0035246632 0.17498586 0.10189813 -0.19694652 -0.039306216 0.27933258 0.21073271
-0.21197356 0.16534977 0.1381187 0.028251236 0.05749846 0.22496028 0.14231122 -0.028288726
0.06440796 -0.21652846 0.16717927 0.2603173 -0.009696408 0.020042857 0.11622885 0.07725539
-0.07190819 -0.18920183 0.058175508 -0.0013547358 -0.22026333 0.13550155 -0.04964263 0.4288372
0.22824262 0.18774967 -0.31621873 -0.21587665 0.24244465 0.33607605 -0.61268276 -0.093639635
0.09626062 0.19086015 0.41856915 -0.13007054 0.12415111 0.232561 0.04374717 -0.13446684
0.36378995 0.18598628 -0.2137908 0.15313768 0.4535675 0.21222013 -0.15572052 0.45879662
-0.1137448 -0.23502736 -0.058229733 -0.05204277 0.57717615 -0.08525164 -0.084988326 0.14714776
-0.48885506 0.13386416 -0.037041973 0.001642195 -0.08352438 0.006883343 0.26816678 0.16723812
-0.32897764 0.18196438 0.13739459 -0.16582148 0.2095037 -0.060511116 0.13605797 -0.13590372
-0.10375684 -0.6739876 0.20971628 0.11987835 -0.39396727 0.2818933 0.17609552 0.20786102
-0.18868506 -0.31196928 0.0016510861 -0.07694827 -0.13400452 0.07130468 -0.092359684 0.25610012
00000000: 72ca f0bd bada 513e 2268 6f3d ca3d 2c3e
00000010: f1a6 dc3e 2d2d ac3e e82d 92be b7ab 86bc
00000020: 57c0 0b3e 62ce f23d e110 d23e 3067 b13c
00000030: 427f 1c3e 3e63 653c 3ab3 c3bc 0c3b 5c3e
00000040: 3f2f 3dbd ac7d 8c3e 65ea 1cbe 5861 613e
00000050: d9b5 9d3e cbf9 003e 535b b4bc 34e2 793e
00000060: 180f ccbe af9d 3cbe 5f75 d0bd c30e 353b
00000070: ad15 063f bab6 143e e894 09be 1600 233e
00000080: a775 79be 37f9 1d3e a98e ae3c 3703 03bc
00000090: 2ca7 47bc 4fb4 1fbe 7876 1b3e 6a91 f23d
000000a0: 2114 1d3b 6a42 0b3e 386d c73d 6edf 943d
000000b0: 702e f43d fae5 92bc fcd0 493e bbe6 293e
000000c0: 9cb9 2ebe 2836 763d dc93 b5bd 73b2 8d3e
000000d0: d802 8e3e 9709 b23d dc95 ac3d 8c60 fa3b
000000e0: d7ca 50be 9e9a 0cbe 0f20 db3d 0673 433e
000000f0: 23af 15be 7363 5b3e 2ade cabd 495c 013f
00000100: a329 d7bd 5dd9 493e fb4d f63e 0ecf 4b3e
00000110: 77e0 b13e 0b00 993e 6eca e13d e95b 78be
00000120: fc99 3f3d 44ec d83d c8ad 9f3e 08e9 1c3e
00000130: 3b3a 303e 9ab7 a83d 60de a5bc e28b cc3e
00000140: bde9 1b3e b507 b53d 5d98 9cbd f0bc 1e3e
00000150: 1268 f23e a5e7 733e a44d 17be 63b2 f03d
00000160: 109c 8bbd df9d 09be 483c 223d 37fc 80be
00000170: cf0f d23e 4290 f23d 2245 cdbb 5058 1f3e
00000180: 0286 bebe 4789 f43d 4917 603d 33b4 6cbd
00000190: 855b 663d 0406 a2bd 9634 1b3e 06c6 293c
000001a0: a2d2 ae3d 446a 113e 3a53 5c3d d9b3 9c3d
000001b0: b136 ba3d 9d8b ff3c 0d77 363e 4712 e5be
000001c0: b231 2fbe e88e 28be 0ee2 023e e910 4f3e
000001d0: fcc9 e43c b614 f63d baf4 bf3d 0c95 7d3d
000001e0: 9355 b7bd 2e10 d5be e002 9d3d b4ea 4a3e
000001f0: 2093 1dbe da43 833c 4b71 77be 57fc bc3e
00000200: e4eb 04bf 069d 9d3e 5d41 933e a395 5dbe
00000210: 2b90 243f f5b5 313e 0895 1cbd 5212 3abd
00000220: de1b ab3d e7ba 103e 26ce 3d3c 71ca 683e
00000230: 5f0d 4a3e 84e9 223e 665c 98bd 7df3 793e
00000240: b835 593c d5ce 18bd 097c bfbe 8e07 fe3d
00000250: 4568 0ebe 2133 4c3e ecb5 bcbd b314 b13d
00000260: 86f9 24be 188e 4abd 48b3 8abe f6af 7dbd
00000270: 8507 1d3e d4d5 a03e de55 573e af16 c83d
00000280: 467b c93c 09fe 663b 7e2f 333e f7af d03d
00000290: 59ac 49be 8eff 20bd ae04 8f3e 51ca 573e
000002a0: 990f 59be 7351 293e fd6e 0d3e 236f e73c
000002b0: 8183 6b3d fd5b 663e 08ba 113e c2bd e7bc
000002c0: 52e8 833d a3b9 5dbe 0b31 2b3e 4f48 853e
000002d0: afdd 1ebc eb30 a43c 6409 ee3d 1338 9e3d
000002e0: 9a44 93bd 20be 41be 7149 6e3d 6491 b1ba
000002f0: b68c 61be ebc0 0a3e 1256 4bbd 8d90 db3e
00000300: 6fb8 693e 7341 403e 6ce7 a1be c50e 5dbe
00000310: 6943 783e 2912 ac3e c7d8 1cbf 23c6 bfbd
00000320: 4a24 c53d d870 433e b24e d63e 3631 05be
00000330: f042 fe3d 7924 6e3e 3c30 333d adb1 09be
00000340: ad42 ba3e 3073 3e3e faeb 5abe 20d0 1c3e
00000350: 003a e83e 3c50 593e 3375 1fbe 64e7 ea3e
00000360: 09f3 e8bd 03ab 70be 4d82 6ebd cd2a 55bd
00000370: d1c1 133f 6998 aebd 5c0e aebd e7ad 163e
00000380: 364b fabe b013 093e 53b9 17bd ec3e d73a
00000390: d50e abbd ab8d e13b 284d 893e 7840 2b3e
000003a0: c26f a8be df54 3a3e 2bb1 0c3e 1bcd 29be
000003b0: 2388 563e 81da 77bd c852 0b3e 582a 0bbe
000003c0: 777e d4bd 748a 2cbf ddbf 563e c882 f53d
000003d0: 14b6 c9be 5254 903e 6252 343e 85d9 543e
000003e0: a836 41be 70ba 9fbe 4269 d83a 0e97 9dbd
000003f0: 7b38 09be 3008 923d 1327 bdbd 8e1f 833e

lin3.bias f4 [4]
0.2594823 0.2289276 0.13699894 0.13792464
00000000: ddda 843e ff6b 6a3e 7349 0c3e 1e3c 0d3e
